Model: "sequential_1"
_________________________________________________________________
 Layer (type)                Output Shape              Param #   
=================================================================
 conv2d_10 (Conv2D)          (None, 32, 32, 64)        640       
                                                                 
 conv2d_11 (Conv2D)          (None, 32, 32, 64)        36928     
                                                                 
 max_pooling2d_5 (MaxPooling  (None, 16, 16, 64)       0         
 2D)                                                             
                                                                 
 conv2d_12 (Conv2D)          (None, 16, 16, 128)       73856     
                                                                 
 conv2d_13 (Conv2D)          (None, 16, 16, 128)       147584    
                                                                 
 max_pooling2d_6 (MaxPooling  (None, 8, 8, 128)        0         
 2D)                                                             
                                                                 
 conv2d_14 (Conv2D)          (None, 8, 8, 256)         295168    
                                                                 
 conv2d_15 (Conv2D)          (None, 8, 8, 256)         590080    
                                                                 
 max_pooling2d_7 (MaxPooling  (None, 4, 4, 256)        0         
 2D)                                                             
                                                                 
 conv2d_16 (Conv2D)          (None, 4, 4, 512)         1180160   
                                                                 
 conv2d_17 (Conv2D)          (None, 4, 4, 512)         2359808   
                                                                 
 max_pooling2d_8 (MaxPooling  (None, 2, 2, 512)        0         
 2D)                                                             
                                                                 
 conv2d_18 (Conv2D)          (None, 2, 2, 512)         2359808   
                                                                 
 conv2d_19 (Conv2D)          (None, 2, 2, 512)         2359808   
                                                                 
 max_pooling2d_9 (MaxPooling  (None, 1, 1, 512)        0         
 2D)                                                             
                                                                 
 batch_normalization_1 (Batc  (None, 1, 1, 512)        2048      
 hNormalization)                                                 
                                                                 
 dropout_1 (Dropout)         (None, 1, 1, 512)         0         
                                                                 
 flatten_1 (Flatten)         (None, 512)               0         
                                                                 
 dense_3 (Dense)             (None, 512)               262656    
                                                                 
 dense_4 (Dense)             (None, 128)               65664     
                                                                 
 dense_5 (Dense)             (None, 11)                1419      
                                                                 
=================================================================
Total params: 9,735,627
Trainable params: 9,734,603
Non-trainable params: 1,024
_________________________________________________________________
